src/two_tower_model.pth (torch, 113409 bytes, 20 tensors)

item_tower.genre_embedding.weight f4 [82, 32]
-0.18701811 -0.66076785 -1.045393 -0.26381642 -0.13162152 0.5125524 0.04715555 -0.6415677
-0.15980448 0.61586094 -1.3333445 0.023206403 -0.01046273 0.59233165 -0.007832112 0.07721217
-0.24366729 -0.78241336 -0.02181957 0.22676924 0.44422534 0.2947355 0.08417789 -0.12528533
0.09137565 -0.13136004 -0.1567201 -0.03732025 -0.19134066 0.34540644 0.09368875 -0.19921847
0.59268653 0.11866258 -0.033576533 0.2204117 0.5333168 0.356 -0.19728732 0.07887763
-0.3525654 -0.6197059 0.11490142 0.088341996 0.12591255 -0.5833613 0.46728334 -0.240745
-0.2062552 0.048735283 0.6558166 -0.9131092 0.70364004 -0.30738887 0.2826611 -0.43528545
-0.22796497 0.37554854 -0.8417063 0.197439 -0.6672086 -0.23413746 -0.18124257 -0.09907658
0.086222276 -0.059183467 0.62780774 -0.90793675 -0.0033433465 -0.042061754 0.19818828 -0.34328625
-0.07615034 -0.28155383 0.83840525 -1.2688965 0.016594162 0.2636744 -0.0034998127 -0.39049813
0.1852502 -0.31112188 0.22992031 -0.7513229 -0.1571145 0.63880336 -0.103650585 -0.28342095
-0.18790595 -0.07043952 0.019394359 0.7562322 -0.58680147 0.12992938 -0.40173218 0.32534194
0.9700178 -0.19451605 0.8235878 1.5228926 0.6281723 -1.4947972 0.27863145 -0.21086837
-0.4271053 0.13341711 0.32571292 0.58919 -0.18879414 0.39055678 -0.36020792 -0.18749909
-0.44064134 -1.1902655 -0.9473183 2.0449193 0.1511468 -0.22480193 -0.015897777 -0.3196298
0.22268006 0.725579 0.56717426 0.20194167 0.6408882 0.63583815 0.6555795 0.3551917
2.57689 -0.82807434 0.862347 -0.54267734 -0.46411246 -2.277286 -0.02933017 -0.025755195
0.76762885 1.2070041 0.45591873 0.38835406 1.4524707 -0.1623598 -0.049312588 -0.43835533
-0.6410726 0.60938656 -0.12190474 -0.13429426 0.74572027 0.888285 -1.6144242 0.020623516
1.6640595 0.04278919 0.13722575 -0.8043111 -1.8579005 0.9334406 1.4189773 1.6594719
-0.22655182 0.10816203 -0.021809105 0.0967958 0.5206095 -0.14364302 -0.10131503 0.6966457
0.10544974 0.1346252 0.2472513 -0.03997228 -0.10741954 -0.18433571 -0.05384728 0.15165183
-0.3343191 0.30398965 0.19086635 -0.23690076 -0.1492848 -0.024916947 -0.05046767 -0.111563094
0.1874188 -1.045556 0.08792148 -0.09195897 0.50819355 0.02091918 -0.026224585 1.0178897
-0.062090997 0.17409404 0.0913019 -0.81064737 0.13854463 -0.5972669 0.577071 0.045683254
-1.1984 0.75793695 0.41631496 0.089054234 -0.45068824 0.34450617 -0.68687683 -0.20864353
-0.23234919 0.40272486 0.045810618 -0.3094126 0.03513226 -0.39029658 0.12316708 -0.17181124
0.43115556 0.20491743 -0.48501772 -0.3417195 -0.5120127 -0.101391606 0.07363508 0.21882273
-0.51337975 -0.2795601 -0.573778 -0.52043444 0.53853023 -1.0412202 -0.18416628 0.24372646
-0.34573185 -0.50656414 -0.6175162 -0.294645 -0.048299666 -0.09500756 0.56972593 0.18571062
-0.4035553 1.0333308 -0.0010079916 -0.33558795 -0.43608063 0.5382357 -0.3953845 -0.6730378
-0.35847312 -0.08757079 0.03951089 0.01224238 0.73383206 -0.03727705 0.1390578 0.059304018
00000000: ad81 3fbe 1528 29bf 70cf 85bf f212 87be
00000010: cbc7 06be a236 033f 2e26 413d c83d 24bf
00000020: c9a3 23be 10a9 1d3f 08ab aabf 5b1b be3c
00000030: df6b 2bbc 0ca3 173f 4252 00bc 6a21 9e3d
00000040: eb83 79be 3e4c 48bf f4be b2bc 3236 683e
00000050: 8171 e33e 92e7 963e 7565 ac3d cc4a 00be
00000060: 2823 bb3d 3f83 06be 3c7b 20be 1edd 18bd
00000070: ceee 43be 1dd9 b03e e3df bf3d edff 4bbe
00000080: 4eba 173f 5e05 f33d 8c87 09bd 9bb3 613e
00000090: 7387 083f a245 b63e b005 4abe 988a a13d
000000a0: 7483 b4be 0ca5 1ebf 7051 eb3d a6ec b43d
000000b0: 38ef 003e 2b57 15bf c33f ef3e db85 76be
000000c0: 9034 53be a69e 473d 99e3 273f 86c1 69bf
000000d0: c121 343f 1362 9dbe f5b8 903e bcdd debe
000000e0: a66f 69be e647 c03e 107a 57bf 732d 4a3e
000000f0: 2fce 2abf bbc1 6fbe a797 39be a9e8 cabd
00000100: 4e95 b03d 5d6a 72bd 02b8 203f 8b6e 68bf
00000110: 0c1c 5bbb f248 2cbd def1 4a3e 37c3 afbe
00000120: b6f4 9bbd d327 90be baa1 563f 336b a2bf
00000130: 7bf0 873c 5500 873e 1d5d 65bb 5fef c7be
00000140: 3ab2 3d3e 5e4b 9fbe 3b70 6b3e b356 40bf
00000150: a0e2 20be 9e88 233f c246 d4bd 8d1c 91be
00000160: 6b6a 40be 9842 90bd ebe0 9e3c 6f98 413f
00000170: 9f38 16bf 350c 053e d7af cdbe 3893 a63e
00000180: 1653 783f 372f 47be a6d6 523f 25ee c23f
00000190: e6cf 203f 8455 bfbf c8a8 8e3e e1ed 57be
000001a0: 8cad dabe 7f9e 083e d8c3 a63e 28d5 163f
000001b0: 4053 41be 0ff7 c73e 2c6d b8be c3ff 3fbe
000001c0: be9b e1be 9f5a 98bf 7483 72bf f5df 0240
000001d0: 3ac6 1a3e 7a32 66be 0e3c 82bc 84a6 a3be
000001e0: 3e06 643e 8cbf 393f 5532 113f ccc9 4e3e
000001f0: 4011 243f 4ac6 223f 0fd4 273f b0db b53e
00000200: c4eb 2440 aefc 53bf c6c2 5c3f e7ec 0abf
00000210: 26a0 edbe 0ebf 11c0 d345 f0bc 8ffc d2bc
00000220: 5383 443f 1c7f 9a3f 2e6e e93e 58d6 c63e
00000230: 8fea b93f a641 26be fffb 49bd 1c70 e0be
00000240: 551d 24bf c200 1c3f 31a9 f9bd 6f84 09be
00000250: 86e7 3e3f a566 633f 74a5 cebf a6f2 a83c
00000260: e7ff d43f b843 2f3d e884 0c3e 55e7 4dbf
00000270: afcf edbf f7f5 6e3f 0ca1 b53f 9369 d43f
00000280: 33fd 67be 0e84 dd3d 02a9 b2bc e03c c63d
00000290: aa46 053f 2817 13be 417e cfbd 5f57 323f
000002a0: 09f6 d73d 30db 093e 722f 7d3e f9b9 23bd
000002b0: c7fe dbbd 80c2 3cbe f78e 5cbd 9e4a 1b3e
000002c0: e02b abbe 88a4 9b3e 7872 433e 1d96 72be
000002d0: 1dde 18be a01e ccbc 30b7 4ebd 317b e4bd
000002e0: b7ea 3f3e c7d4 85bf 2d10 b43d fc54 bcbd
000002f0: f918 023f b35e ab3c f1d4 d6bc 364a 823f
00000300: 2153 7ebd b545 323e 7efc ba3d 9686 4fbf
00000310: a5de 0d3e 7ce6 18bf edba 133f 5d1e 3b3d
00000320: 2c65 99bf 2808 423f 3c27 d53e 1162 b63d
00000330: 9cc0 e6be 1d63 b03e 29d7 2fbf a6a6 55be
00000340: f2ec 6dbe f431 ce3e eaa3 3b3d 546b 9ebe
00000350: d8e6 0f3d f4d4 c7be 063f fc3d 49ef 2fbe
00000360: 6cc0 dc3e e0d5 513e 3e54 f8be dcf5 aebe
00000370: 4413 03bf 67a6 cfbd fdcd 963d 1113 603e
00000380: db6c 03bf 8022 8fbe 1de3 12bf 313b 05bf
00000390: 1edd 093f b446 85bf 1696 3cbe 6e93 793e
000003a0: c403 b1be 30ae 01bf 8b15 1ebf b6db 96be
000003b0: dfd5 45bd 5393 c2bd 8fd9 113f ed2a 3e3e
000003c0: cd9e cebe 2f44 843f 961e 84ba 2fd2 abbe
000003d0: f645 dfbe d1c9 093f d66f cabe 354c 2cbf
000003e0: ca89 b7be 5058 b3bd 2cd6 213d 4394 483c
000003f0: 6bdc 3b3f d2af 18bd 2b65 0e3e c5e8 723d

item_tower.fc1.weight f4 [128, 40]
0.27150953 -3.9881675 -0.22562346 -0.068008855 0.034356676 -0.09373735 0.06618443 -0.06297816
0.2645554 0.07045211 -0.004892925 0.054460518 0.13560276 0.053874597 0.13646193 -0.1402811
0.114953205 0.0010495747 0.12831914 0.04116332 0.04298881 -0.04403989 0.15915671 0.16058071
0.18212843 -0.06597794 -0.13833332 -0.04041967 0.07427896 0.07602149 -0.11609614 -0.052113008
-0.028459994 -0.13157612 -0.14487632 -0.0077577024 0.15164669 -0.1123686 -0.05068273 0.21731055
-0.04594558 -7.806774 0.056680262 0.053528406 -0.098987214 0.0035159755 0.20662113 0.030292012
0.03029689 0.0050244834 -0.020622326 0.009018578 0.015089924 -0.03541563 0.120141484 -0.022252748
-0.07168758 0.039341923 0.010806944 0.084990315 -0.0535302 0.052909352 0.027652547 0.079939164
-0.015860064 -0.005378115 0.023910705 -0.016960511 -0.012541156 -0.04736536 -0.031226037 0.010912319
-0.057933565 0.04490398 -0.041324265 0.013897562 0.050903074 -0.0011863341 -0.036060408 0.09455096
0.0950486 0.32507136 0.2971588 -0.15793349 -0.17508163 0.10116076 3.100331 -0.35426494
0.046464086 -0.03717 -0.058301784 0.1123191 0.023943178 -0.054448064 0.0023749913 -0.030693531
0.012716146 0.072708376 -0.027628198 0.072846666 -0.08841001 0.046541475 -0.02163093 -0.10145832
-0.08678513 -0.13201459 0.08071267 -0.05123817 -0.003967385 0.06671135 0.04834466 0.019808507
0.08740014 -0.031150164 0.03396122 0.11998117 0.07882755 0.04460566 -0.01437305 0.0075408216
0.0066821678 0.0743936 -0.4817506 0.29727808 -0.111965306 -0.023721278 -2.8590927 -0.21593301
0.102707475 -0.15258807 -0.011628465 0.09240483 -0.036935173 -0.09855761 0.09062063 -0.19760126
-0.019276027 -0.028323818 0.019764263 -0.11420756 -0.06678672 0.103308715 -0.10049363 0.020095488
0.15202278 -0.056541108 -0.23776765 0.10989507 -0.11236863 0.038743883 0.031011183 -0.07649486
-0.085239016 -0.008368918 -0.09309358 0.09666726 0.07408951 0.20946625 0.03539562 -0.13599965
-0.0014170263 0.57331693 0.27345082 0.01588983 -0.18301122 0.1043708 3.0350547 0.15563165
-0.030938309 0.010270379 -0.033684876 0.023018079 -0.07227944 -0.05473794 0.110673666 -0.04699742
0.04298199 -0.0660009 -0.098514505 0.017497031 0.03084122 0.01579443 -0.041515995 0.007985472
-0.10585817 -0.0114567075 0.055564445 0.10724414 0.02108382 -0.018943992 -0.04872205 0.12583134
0.017906161 0.010447793 0.048215374 0.11868196 -0.014872279 -0.07659516 0.015938833 0.0153149655
-0.020312151 -0.30709204 -0.011115438 -0.019334586 -0.23321722 0.060811333 -3.1100256 0.027469212
-0.07922947 0.043395683 -0.07764844 0.007816524 0.1532167 0.034960404 -0.06506672 0.14596729
-0.028851004 0.07397313 -0.050757598 0.055806555 0.07387982 0.1500861 0.082863145 0.11015333
0.037361275 -0.13387343 0.06920744 -0.3184213 -0.1571067 0.029302282 -0.060584653 0.05000791
-0.077826716 -0.14431468 0.13995537 -0.026641665 0.060147833 0.0200215 0.043482848 -0.030909734
0.02574618 -1.1726559 0.0004749566 -0.48373973 -0.37434086 0.16640387 2.2859032 -0.075497895
-0.2984144 -0.115836844 -0.16238339 0.008880281 -0.023281477 0.11320638 -0.3239961 0.125073
00000000: 4c03 8b3e 233e 7fc0 d609 67be 3a48 8bbd
00000010: 96b9 0c3d 5ef9 bfbd b48b 873d b2fa 80bd
00000020: ce73 873e 3249 903d d454 a0bb fe11 5f3d
00000030: 73db 0a3e 9cab 5c3d adbc 0b3e d9a5 0fbe
00000040: 966c eb3d e291 893a 1866 033e df9a 283d
00000050: 0915 303d 2c63 34bd faf9 223e 456f 243e
00000060: e07f 3a3e 711f 87bd 40a7 0dbe 198f 25bd
00000070: 911f 983d 28b1 9b3d d0c3 edbd 7374 55bd
00000080: ef24 e9bc e4bb 06be 755a 14be 5334 febb
00000090: 4549 1b3e 8221 e6bd b298 4fbd a886 5e3e
000000a0: 6f31 3cbd 18d1 f9c0 9029 683d 9a40 5b3d
000000b0: cfb9 cabd 486c 663b 7d94 533e f426 f83c
000000c0: 2f31 f83c 6ca4 a43b 27f0 a8bc a8c2 133c
000000d0: bb3b 773c fb0f 11bd bd0c f63d 654b b6bc
000000e0: f0d0 92bd ff24 213d 9c0f 313c 670f ae3d
000000f0: 7c42 5bbd 7ab7 583d 9887 e23c 25b7 a33d
00000100: f7ec 81bc e63a b0bb 62e0 c33c c5f0 8abc
00000110: 6c79 4dbc 2e02 42bd bfcd ffbc 95c9 323c
00000120: bf4b 6dbd 3ced 373d a243 29bd 9ab2 633c
00000130: be7f 503d c47e 9bba 14b4 13bd efa3 c13d
00000140: d7a8 c23d c16f a63e 3325 983e 51b9 21be
00000150: 9948 33be 5f2d cf3d d36b 4640 3762 b5be
00000160: 2051 3e3d 923f 18bd dacd 6ebd 8e07 e63d
00000170: 7c24 c43c ef04 5fbd bea5 1b3b 0071 fbbc
00000180: 6257 503c 21e8 943d 8854 e2bc a230 953d
00000190: 4f10 b5bd 46a2 3e3d 5933 b1bc 61c9 cfbd
000001a0: 67bc b1bd d52e 07be af4c a53d 1edf 51bd
000001b0: d600 82bb f69f 883d 0d05 463d 7345 a23c
000001c0: d8fe b23d a12e ffbc ec1a 0b3d b0b8 f53d
000001d0: 5770 a13d 6db4 363d f17c 6bbc ff18 f73b
000001e0: 16f6 da3b ac5b 983d 04a8 f6be d534 983e
000001f0: 114e e5bd 2053 c2bc 60fb 36c0 8b1d 5dbe
00000200: 4c58 d23d 0c40 1cbe 5185 3ebc be3e bd3d
00000210: 5649 17bd 92d8 c9bd 4f97 b93d fc57 4abe
00000220: c2e8 9dbc 5a07 e8bc aae8 a13c a7e5 e9bd
00000230: 7ac7 88bd 8593 d33d 9bcf cdbd 4b9f a43c
00000240: dcab 1b3e a697 67bd 5d79 73be ab10 e13d
00000250: 8621 e6bd e8b1 1e3d 2a0b fe3c 56a9 9cbd
00000260: cb91 aebd c91d 09bc d9a7 bebd 7cf9 c53d
00000270: 3ebc 973d 527e 563e fffa 103d 7e43 0bbe
00000280: 83bb b9ba e6c4 123f bf01 8c3e 642b 823c
00000290: 4b67 3bbe 5cc0 d53d 563e 4240 e75d 1f3e
000002a0: 5672 fdbc 1745 283c 27f9 09bd 6990 bc3c
000002b0: 3e07 94bd e434 60bd e0a8 e23d 5e80 40bd
000002c0: e20d 303d 7b2b 87bd f9c1 c9bd ef55 8f3c
000002d0: baa6 fc3c 5263 813c ad0c 2abd 7fd5 023c
000002e0: 2bcc d8bd eab4 3bbc 8b97 633d d1a2 db3d
000002f0: fab7 ac3c 6e30 9bbc c690 47bd eed9 003e
00000300: f1af 923c 382d 2b3c 7c7d 453d 870f f33d
00000310: dcaa 73bc ecdd 9cbd 2892 823c 9feb 7a3c
00000320: ab65 a6bc 2b3b 9dbe 871d 36bc 9163 9ebc
00000330: 7fd0 6ebe 4e15 793d a90a 47c0 1d07 e13c
00000340: 0f43 a2bd acbf 313d 2506 9fbd e110 003c
00000350: d7e4 1c3e a432 0f3d b341 85bd 7378 153e
00000360: f158 ecbc 397f 973d 33e7 4fbd 6a95 643d
00000370: 4e4e 973d 2cb0 193e 27b4 a93d 1298 e13d
00000380: 2308 193d 1e16 09be a1bc 8d3d 1e08 a3be
00000390: 94e0 20be 570b f03c 9d27 78bd 18d5 4c3d
000003a0: 9d63 9fbd 3ac7 13be 7650 0f3e 9f3f dabc
000003b0: 935d 763d 2104 a43c 121b 323d 6936 fdbc
000003c0: a7e9 d23c 9719 96bf 9903 f939 bcac f7be
000003d0: 9ba9 bfbe c765 2a3e 3d4c 1240 a49e 9abd
000003e0: c6c9 98be de3b edbd d547 26be 997e 113c
000003f0: ccb8 bebc bfd8 e73d d1e2 a5be 2313 003e

item_tower.fc1.bias f4 [128]
-0.07153446 -0.044188038 0.10712152 -0.005866787 -0.080285564 0.10891788 0.15515333 0.044868436
-0.011858895 0.059219122 0.13333917 0.09110016 0.13390462 0.048859876 -0.13760406 -0.044244025
0.1057944 0.08950904 -0.14168888 -0.094156854 0.15197004 -0.11237226 0.038064595 -0.06428971
0.029067302 -0.11687045 0.10242097 -0.084806934 0.099439435 -0.02845385 -0.023174515 -0.00841107
0.13659142 -0.012669984 0.010383364 0.09231986 0.08480033 -0.06248759 -0.1351772 -0.08760211
-0.08251565 0.09838738 -0.10237319 -0.13129108 0.10433307 0.1435352 0.13742854 -0.071179695
0.035021104 -0.11360853 -0.025181519 0.09650005 -0.082069 -0.03108323 0.022069464 0.0072833425
0.10274198 0.07484197 0.08260146 0.05218216 0.096767165 -0.11604537 -0.15845957 0.021254277
0.03077924 -0.07726429 -0.12116135 0.11042288 -0.09052943 0.016723238 0.075748876 -0.039297696
-0.10141614 0.116136104 0.028448677 0.018200504 -0.048302818 -0.0689129 0.02808463 -0.12845212
-0.00056703313 0.11703814 0.045995727 0.08260463 0.11427599 -0.12705599 0.07254006 0.09981764
0.118227884 -0.11394115 -0.04264517 -0.12311615 -0.040886667 -0.0466594 0.036635984 0.07170471
-0.15182768 0.116663165 0.0025570993 0.08518238 0.03707919 0.034575295 -0.0040079164 0.10516602
0.1454715 -0.10261371 -0.005218423 -0.12386635 -0.09084373 0.06979682 0.06020024 0.073866114
0.030783273 0.08384841 0.03272578 0.096623495 -0.082373194 0.105154425 -0.10613305 0.08754385
-0.12562457 -0.1536028 0.07651474 -0.025947487 0.040313877 0.053398445 0.027927816 0.012716286
00000000: a980 92bd 84fe 34bd 8762 db3d 2d3e c0bb
00000010: c26c a4bd 5610 df3d 84e0 1e3e f7c7 373d
00000020: d04b 42bc c08f 723d 108a 083e b892 ba3d
00000030: 4b1e 093e 4b21 483d 14e8 0cbe 3939 35bd
00000040: bcaa d83d 8450 b73d e416 11be 4fd5 c0bd
00000050: 099e 1b3e 6d23 e6bd 9fe9 1b3d 53aa 83bd
00000060: 8d1e ee3c c659 efbd 16c2 d13d 42af adbd
00000070: e7a6 cb3d 0c18 e9bc 7bd8 bdbc 96ce 09bc
00000080: 9fde 0b3e c495 4fbc fc1e 2a3c 3212 bd3d
00000090: ccab ad3d fdf2 7fbd e46b 0abe bc68 b3bd
000000a0: f7fd a8bd 537f c93d 09a9 d1bd 2b71 06be
000000b0: 94ac d53d e4fa 123e 11ba 0c3e a9c6 91bd
000000c0: 4a72 0f3d 97ab e8bd 7949 cebc d1a1 c53d
000000d0: cb13 a8bd 42a2 febc 05cb b43c 1ba9 ee3b
000000e0: 636a d23d bf46 993d f42a a93d f6bc 553d
000000f0: dd2d c63d 32a9 edbd 3a43 22be 731d ae3c
00000100: bf24 fc3c bd3c 9ebd 7123 f8bd 6425 e23d
00000110: 7e67 b9bd 2cff 883c 3a22 9b3d 9ff6 20bd
00000120: 44b3 cfbd c4d8 ed3d 330d e93c 3919 953c
00000130: 2dd9 45bd 3522 8dbd bd11 e63c f488 03be
00000140: f3a4 14ba b1b1 ef3d 0466 3c3d 9e2c a93d
00000150: 8809 ea3d f71a 02be e28f 943d 316d cc3d
00000160: 7621 f23d fa59 e9bd b4ac 2ebd 5224 fcbd
00000170: c778 27bd ed1d 3fbd 9d0f 163d ebd9 923d
00000180: b778 1bbe 19ed ee3d 0295 273b 1a74 ae3d
00000190: 59e0 173d d39e 0d3d d754 83bb 4861 d73d
000001a0: 7bf6 143e 2327 d2bd 4eff aabb a4ad fdbd
000001b0: 470c babd a3f1 8e3d 8794 763d 1e47 973d
000001c0: 342d fc3c b7b8 ab3d 780b 063d 8ae2 c53d
000001d0: 47b3 a8bd 345b d73d 495c d9bd 314a b33d
000001e0: baa3 00be 0d4a 1dbe c3b3 9c3d d38f d4bc
000001f0: 2a20 253d 54b8 5a3d e0c8 e43c f857 503c

item_tower.bn1.weight f4 [128]
0.62184036 1.1546172 0.66055316 0.7021454 0.48503843 0.95558935 0.37572291 0.7744892
0.8531739 0.87341356 0.62747383 0.8720699 0.49261057 0.8356013 0.9856279 0.87592566
0.51962155 0.5045888 0.63740325 0.8866134 0.42003646 0.7662121 0.97554594 0.8532248
0.18420933 0.5529046 0.5575914 1.4217572 0.8184347 0.87073135 0.85518724 0.53949034
0.61255485 0.7325024 0.9849045 0.5365319 0.63337624 0.6376924 0.9590199 0.77648747
0.7015744 0.413105 0.98922116 0.95456105 0.675108 0.6648322 0.8482731 0.68128103
0.91856307 0.5722701 0.14965451 0.7942578 0.9353125 0.60291404 0.8583146 0.45099378
0.9568208 0.5578636 0.4156785 1.27509 0.8634327 1.0068057 1.1422257 0.6918719
0.67403126 1.0091991 0.9093974 0.44201818 0.8587015 0.92186886 1.2342162 1.1526158
0.78428566 0.4714696 0.83653164 0.9537543 0.84967285 1.2564752 0.9375688 0.77065384
0.2651177 0.5936998 0.939277 0.94425064 0.70171154 0.692368 1.0019547 0.5813353
0.6785567 0.5718705 0.6011968 0.6450584 1.3027261 0.72708076 0.4752766 0.46316537
1.019645 0.8505678 0.41911742 0.52557373 0.59534717 0.17111002 1.3882746 0.47685772
0.5317914 1.0542111 0.27052784 0.22128624 0.7532385 0.50671506 0.35815278 0.788953
0.5726436 0.7688457 0.6231575 0.9121392 0.3809957 0.15157147 1.2636954 0.43825737
1.1578475 0.7477222 0.7122372 0.69271356 0.71405554 0.9447271 0.75667197 0.36755946
00000000: ee30 1f3f 7fca 933f 031a 293f cdbf 333f
00000010: f556 f83e 81a1 743f c15e c03e ed44 463f
00000020: 9b69 5a3f 0898 5f3f 20a2 203f f93f 5f3f
00000030: 7437 fc3e f7e9 553f 1c52 7c3f aa3c 603f
00000040: eb05 053f bb2c 013f dc2c 233f 19f9 623f
00000050: 050f d73e 7a26 443f 61bd 793f f16c 5a3f
00000060: 5fa1 3c3e 288b 0d3f 4fbe 0e3f 24fc b53f
00000070: f084 513f 40e8 5e3f 8ded 5a3f 0a1c 0a3f
00000080: 65d0 1c3f 4785 3b3f b422 7c3f 285a 093f
00000090: f224 223f cf3f 233f 5482 753f e2c7 463f
000000a0: 619a 333f 8082 d33e 993d 7d3f 1d5e 743f
000000b0: e1d3 2c3f 7132 2a3f 6d28 593f 6f68 2e3f
000000c0: f326 6b3f 4b80 123f 083f 193e 7b54 4b3f
000000d0: a470 6f3f 9358 1a3f 81ba 5b3f a8e8 e63e
000000e0: 35f2 743f 26d0 0e3f d0d3 d43e 2636 a33f
000000f0: ed09 5d3f 02df 803f 7434 923f 841e 313f
00000100: 508d 2c3f 702d 813f 45ce 683f 3550 e23e
00000110: ddd3 5b3f 99ff 6b3f ccfa 9d3f ea88 933f
00000120: f2c6 483f 7764 f13e f026 563f 3e29 743f
00000130: 2984 593f 2ed4 a03f 8204 703f 9249 453f
00000140: 82bd 873e b6fc 173f 7574 703f 69ba 713f
00000150: 5ea3 333f 073f 313f 0d40 803f 64d2 143f
00000160: e4b5 2d3f 1b66 123f 09e8 193f 8c22 253f
00000170: bbbf a63f f721 3a3f 7457 f33e 0324 ed3e
00000180: ba83 823f d0be 593f 8f96 d63e 008c 063f
00000190: ac68 183f 7737 2f3e fbb2 b13f b226 f43e
000001a0: 7b23 083f 64f0 863f a082 8a3e dc98 623e
000001b0: 3dd4 403f 14b8 013f cd5f b73e d3f8 493f
000001c0: c598 123f 12d3 443f 4087 1f3f f481 693f
000001d0: de11 c33e 8d35 1b3e c5c0 a13f 4563 e03e
000001e0: 5934 943f b96a 3f3f 2d55 363f ad55 313f
000001f0: 58cc 363f a3d9 713f 41b5 413f c130 bc3e

item_tower.bn1.bias f4 [128]
-0.2931365 -0.41599414 -0.8103584 -0.48871028 -0.6202086 -0.28584066 -0.4586595 -0.30586186
-0.6394193 -0.42947724 -0.5801718 -0.34086955 -0.27744827 -0.2818033 -0.25229988 0.065943904
-0.8256672 -0.64809495 -0.28284687 -0.19232816 -0.37242687 -0.8032581 -0.23927632 -0.3385845
-0.67584103 -0.7329643 -0.94933295 -0.06611836 -0.07829047 -0.2893975 -0.62533176 -0.12803076
-0.22498827 -0.18094885 -0.28721437 -0.6660801 -0.4317606 -0.13052294 -0.24206395 -0.57198685
-0.7363295 -0.34466696 -0.26902837 -0.2826561 -0.4115156 -0.41803038 -0.21287897 -0.32795957
-0.044828475 -0.5330841 -0.5892389 -0.295373 -0.8023466 -0.6248039 -0.6490427 -0.34851104
-0.23657031 -0.5734232 -0.15557525 -0.07441786 -0.37217954 0.03697664 -0.46413007 -0.028043123
-0.43519393 -0.32298538 -0.37478963 -0.19579186 -0.40169787 -0.8625131 -0.08874489 0.0071199206
-0.43234292 -0.43397817 -0.12981637 -0.17011294 -0.3031938 -0.056202505 -0.49585095 -0.23330815
-0.7027592 -0.6240361 -0.24202345 -0.9059754 -0.44692117 -0.7502963 -1.0529767 -0.7299596
-0.77756584 -0.26762676 -0.6685883 -0.48680085 -0.70485675 -0.3150296 -0.14290601 -0.505469
-0.8923652 -0.6589126 -0.8356707 -0.08672837 -0.36079967 -0.72230816 -0.11461073 -0.788486
-0.4301432 -0.1020284 -0.09731786 -0.6174173 -0.7984991 -0.34397456 -0.4611941 -0.065080926
-0.27501187 -0.71500736 -0.124681644 -0.47148353 -0.28410164 -0.6099251 -0.6069048 -0.74640983
-0.05468733 -0.07128949 -0.40187442 -0.508753 -0.79004693 0.041932743 -1.3801904 -0.4712219
00000000: fd15 96be 2ffd d4be a673 4fbf 3c38 fabe
00000010: fec5 1ebf b559 92be 6bd5 eabe ed99 9cbe
00000020: fcb0 23bf 71e4 dbbe 2486 14bf 7486 aebe
00000030: b30d 8ebe 8648 90be 732d 81be 990d 873d
00000040: ed5e 53bf 8de9 25bf 4ed1 90be acf1 44be
00000050: bcae bebe 53a2 4dbf da04 75be f35a adbe
00000060: eb03 2dbf 8ca3 3bbf 7c07 73bf 1069 87bd
00000070: c156 a0bd e92b 94be be15 20bf 7f1a 03be
00000080: 5363 66be a84a 39be c30d 93be 3a84 2abf
00000090: ba0f ddbe cea7 05be 9ddf 77be bb6d 12bf
000000a0: 1780 3cbf 3078 b0be 16be 89be 4db8 90be
000000b0: 2cb2 d2be 1408 d6be f2fc 59be 51ea a7be
000000c0: 109e 37bd 3378 08bf 5cd8 16bf 213b 97be
000000d0: 9666 4dbf 26f3 1fbf aa27 26bf 0a70 b2be
000000e0: 7d3f 72be ddcb 12bf 1e4f 1fbe 6468 98bd
000000f0: 518e bebe d174 173d 75a2 edbe b1ba e5bc
00000100: bdd1 debe 575e a5be 6de4 bfbe a97d 48be
00000110: 58ab cdbe a9cd 5cbf e2bf b5bd 394e e93b
00000120: 0d5c ddbe 6332 debe 95ee 04be 1632 2ebe
00000130: 383c 9bbe 9934 66bd 2de0 fdbe 55e8 6ebe
00000140: 07e8 33bf d4c0 1fbf ffd4 77be 01ee 67bf
00000150: dad2 e4be 6b13 40bf f1c7 86bf a2de 3abf
00000160: 8e0e 47bf 6006 89be 9a28 2bbf f63d f9be
00000170: 7e71 34bf 8f4b a1be f455 12be 6b66 01bf
00000180: 0c72 64bf 7fae 28bf 84ee 55bf a59e b1bd
00000190: bcba b8be 30e9 38bf 08b9 eabd 38da 49bf
000001a0: bb3b dcbe 44f4 d0bd 964e c7bd 0f0f 1ebf
000001b0: 706a 4cbf 6f1d b0be a221 ecbe 2649 85bd
000001c0: 5bce 8cbe b90a 37bf 1759 ffbd 4a66 f1be
000001d0: c575 91be 0d24 1cbf 1d5e 1bbf b714 3fbf
000001e0: d2ff 5fbd 3900 92bd 7cc2 cdbe a33d 02bf
000001f0: 8440 4abf abc1 2b3d 14aa b0bf ff43 f1be

item_tower.bn1.running_mean f4 [128]
-2.7223432 -5.2575274 1.6644084 -1.4341875 1.7806319 -1.5260983 0.15188694 1.6843115
-1.6196908 -1.2836047 2.3779092 1.473769 -2.3776174 1.9013823 1.5842652 2.7291136
-2.229567 1.1581475 -1.6837931 1.793749 -1.0619817 -1.7266588 -4.857175 1.0026692
0.8550509 1.6922421 -1.2054981 3.6573806 1.9567171 1.6172729 -1.4018276 1.8620076
2.1664574 1.6623558 -0.8644606 1.6887623 -0.8471875 -2.1843388 -4.7957096 -1.442327
-1.5609684 -1.5898699 -1.7727275 -1.7659156 -0.90881044 -1.4284033 -4.197595 1.9542221
-0.6209557 -2.446024 -0.79225427 1.5698568 -1.515564 -2.0427392 -0.79217213 -1.0643785
1.9505647 -0.93100715 -2.2366664 3.7965078 1.6937853 2.9568236 -5.0915895 0.89891344
1.4482484 -4.9859495 1.344234 -0.46915135 -3.0249856 -3.0513597 3.2504828 3.3232934
1.8203994 -1.6264883 1.6677669 -1.8566536 1.5603063 3.5582795 -2.737873 1.4349174
0.49351895 -1.5871656 2.063626 -2.7065284 -2.3014903 -1.6306452 -3.957747 1.9816341
-1.5129601 -2.4741116 -1.5907649 -1.3943964 -4.929225 1.3131272 -1.4717886 -0.55229056
-1.6975917 -2.347238 -1.7743617 1.0180566 -1.026013 -0.50667894 4.063202 -2.2408059
-2.4201293 1.6557287 -0.7358954 0.035851404 -1.4000767 -1.2804105 -1.1488292 1.9448113
1.7788839 -1.120573 -3.753841 -1.0144442 -1.8831809 0.6132355 -5.238362 -1.564657
2.8323925 1.331145 -1.4200042 -2.226349 -1.364681 3.1917613 -1.0581195 0.24015883
00000000: df3a 2ec0 aa3d a8c0 560b d53f 7593 b7bf
00000010: bfeb e33f 3057 c3bf 4088 1b3e 8597 d73f
00000020: 0752 cfbf 294d a4bf aa2f 1840 76a4 bc3f
00000030: e22a 18c0 7f60 f33f 34c9 ca3f cca9 2e40
00000040: 3ab1 0ec0 2d3e 943f 8886 d7bf 9199 e53f
00000050: 04ef 87bf 2803 ddbf fa6d 9bc0 7757 803f
00000060: 9ee4 5a3f 649b d83f c34d 9abf 8612 6a40
00000070: b575 fa3f cc02 cf3f 166f b3bf 4456 ee3f
00000080: 3da7 0a40 13c8 d43f 4a4d 5dbf 5d29 d83f
00000090: 48e1 58bf 35cc 0bc0 7476 99c0 2c9e b8bf
000000a0: d0cd c7bf db80 cbbf bce8 e2bf 8609 e2bf
000000b0: cda7 68bf ebd5 b6bf b352 86c0 f323 fa3f
000000c0: f4f6 1ebf a88b 1cc0 2dd1 4abf 11f1 c83f
000000d0: 00fe c1bf 3dbc 02c0 cbcb 4abf 8e3d 88bf
000000e0: 1bac f93f 7c56 6ebf 8b25 0fc0 fcf9 7240
000000f0: f5cd d83f 993c 3d40 4dee a2c0 311f 663f
00000100: 3460 b93f e68c 9fc0 dc0f ac3f 9b34 f0be
00000110: 5d99 41c0 7a49 43c0 e907 5040 d7b0 5440
00000120: d902 e93f c530 d0bf 6379 d53f d3a6 edbf
00000130: 1eb8 c73f daba 6340 5039 2fc0 60ab b73f
00000140: 84ae fc3e 3e28 cbbf 7312 0440 c337 2dc0
00000150: 9e4b 13c0 fbb8 d0bf ba4b 7dc0 30a6 fd3f
00000160: ada8 c1bf d857 1ec0 2f9e cbbf 957b b2bf
00000170: 36bc 9dc0 8d14 a83f 9263 bcbf ea62 0dbf
00000180: af4a d9bf 2639 16c0 491e e3bf ae4f 823f
00000190: 6554 83bf b6b5 01bf c005 8240 5d69 0fc0
000001a0: 66e3 1ac0 ebee d33f a463 3cbf ecd8 123d
000001b0: b735 b3bf 7ee4 a3bf d60c 93bf 94ef f83f
000001c0: 78b2 e33f f06e 8fbf ee3e 70c0 4fd9 81bf
000001d0: 120c f1bf 00fd 1c3f a9a0 a7c0 ae46 c8bf
000001e0: eb45 3540 f662 aa3f b3c2 b5bf 817c 0ec0
000001f0: dead aebf d145 4c40 7670 87bf 32ec 753e

item_tower.bn1.running_var f4 [128]
0.8061414 3.8230596 0.943059 0.97736734 0.8139798 0.5462468 1.4241136 1.40211
0.79336905 0.654111 1.3974992 1.6143475 0.7215395 0.65310836 1.1273154 2.9158633
0.8651607 0.74173236 0.76211584 0.5825348 1.2207338 1.2219944 3.2506514 2.1854374
0.30910096 0.9450846 1.3964812 6.082971 0.7868578 1.452815 0.78844965 1.0198984
1.312652 0.73871845 0.7178371 0.7253417 0.747729 1.170681 3.1371024 1.527448
0.9830992 0.689548 0.6344492 0.5861629 0.8655068 0.7419027 2.4615195 1.1357692
0.73031205 0.7165223 0.35526565 1.1573341 0.845984 0.7506289 0.6883134 0.81943107
1.1208656 0.62031657 0.73561317 5.363463 0.9056717 3.5906289 3.7469342 0.8179578
0.8238872 3.5402944 1.1143745 1.1500682 1.0442727 1.5824946 3.6654212 4.19076
1.1188986 0.8085077 1.9123647 0.6372498 1.9371977 5.008013 0.7883092 1.2851019
1.5339249 0.5680495 1.553508 0.86885434 0.70253134 1.0542502 3.283983 0.9476179
1.2016773 0.69645923 1.1593375 0.7782451 3.2858276 1.0449986 1.2925345 1.5700268
0.80191207 0.5545758 1.3983452 1.6928992 0.6907995 0.3859436 5.770954 0.98396766
0.7239278 0.36289892 1.0305403 1.2808478 0.9035665 0.7395039 0.77983075 1.5079684
1.1571921 0.67106783 2.1667087 0.6369033 0.49274558 0.40106007 3.8971329 1.2855313
3.4241667 1.4549156 0.6607063 0.5709856 0.84023464 3.0782454 1.427094 1.1372204
00000000: 485f 4e3f 02ad 7440 516c 713f bf34 7a3f
00000010: fb60 503f d5d6 0b3f 5b49 b63f 5778 b33f
00000020: 3c1a 4b3f d273 273f 41e1 b23f f0a2 ce3f
00000030: d0b6 383f 1c32 273f df4b 903f 819d 3a40
00000040: 2c7b 5d3f 2ce2 3d3f 061a 433f 0021 153f
00000050: 0141 9c3f 506a 9c3f ac0a 5040 35de 0b40
00000060: 7b42 9e3e 10f1 713f e5bf b23f b3a7 c240
00000070: 836f 493f d8f5 b93f d6d7 493f 088c 823f
00000080: fb04 a83f a71c 3d3f 2cc4 373f feaf 393f
00000090: 2b6b 3f3f e0d8 953f 49c6 4840 6b83 c33f
000000a0: 64ac 7b3f 3886 303f 436b 223f c60e 163f
000000b0: db91 5d3f 56ed 3d3f 8989 1d40 e360 913f
000000c0: bbf5 3a3f 016e 373f 61e5 b53e 8623 943f
000000d0: 6892 583f 3729 403f 4f35 303f 3cc6 513f
000000e0: 8678 8f3f 11cd 1e3f 2551 3c3f 7da1 ab40
000000f0: 1ada 673f ddcc 6540 c5cd 6f40 af65 513f
00000100: 46ea 523f 2f94 6240 d3a3 8e3f 6f35 933f
00000110: baaa 853f 2f8f ca3f 4396 6a40 b51a 8640
00000120: 1238 8f3f 5cfa 4e3f 5ec8 f43f ce22 233f
00000130: 18f6 f73f a441 a040 a2ce 493f 387e a43f
00000140: a757 c43f b16b 113f 5ad9 c63f 3d6d 5e3f
00000150: 18d9 333f acf1 863f c72c 5240 1697 723f
00000160: 90d0 993f 274b 323f 2c65 943f 123b 473f
00000170: 004b 5240 84c2 853f c571 a53f a3f6 c83f
00000180: 1c4a 4d3f aef8 0d3f fafc b23f ecb0 d83f
00000190: 3cd8 303f 669a c53e a8ab b840 4ee5 7b3f
000001a0: 5553 393f e3cd b93e bfe8 833f d2f2 a33f
000001b0: 2250 673f 2150 3d3f fda2 473f 1c05 c13f
000001c0: df1e 943f 1acb 2b3f 5bab 0a40 180c 233f
000001d0: 2649 fc3e bf57 cd3e a06a 7940 4a8c a43f
000001e0: 8c25 5b40 ad3a ba3f 0c24 293f 1d2c 123f
000001f0: 9e19 573f f901 4540 04ab b63f 7090 913f

item_tower.fc2.weight f4 [64, 128]
-0.121722 0.20771055 1.0814632 -0.18773545 1.044364 -0.36393273 0.06263741 0.060159434
-0.39234552 -0.35993186 0.29813474 0.09866 -0.15176633 0.09803546 0.023211181 0.19588062
-0.08467956 1.0924596 -0.18051572 0.043178584 -0.1881499 -1.5466193 -0.016936967 0.06278457
0.024275292 1.1350929 -0.1334954 0.2771495 0.02047193 0.032374974 -0.34156027 0.17457211
0.057905935 0.05740197 -0.26438576 1.0357666 -0.16468975 0.019384837 0.03307499 -0.98249346
-0.8755673 -0.17644703 -0.30634555 -0.28318283 -0.04477718 -0.28590846 0.037941813 0.07299971
-0.22121958 0.12681338 0.06686104 0.016510198 -0.5838337 0.041231718 -0.3909388 -0.11622357
0.060145963 -0.37811568 0.020578008 0.26580575 -0.019410638 0.19763333 0.1452881 0.022314323
0.08839368 0.10885226 -0.0062724375 -0.056814414 -0.025355339 0.14116442 0.32610124 0.3263891
0.012687 -0.059250135 0.056402307 -0.29561603 0.03677948 0.30583557 -0.07281654 0.04457328
0.086586535 0.01973508 0.08035011 0.18869293 0.0059899003 -1.4865627 0.24324049 0.8010851
-1.295991 0.1404497 -0.8784184 -0.21576206 0.15761533 0.10700409 -0.040373594 0.06153284
-0.72216547 0.18457553 -0.6669228 0.051400922 -0.08469823 -0.086031824 0.3140987 -0.9655525
-0.0361535 0.02606707 -0.058071125 -0.07020347 -0.7440187 -0.1676179 -0.050870378 0.2135352
0.10993997 -0.58138484 0.0061643315 -0.35737178 -0.0876523 0.09643097 0.14336886 -0.20283204
0.29433733 0.050938513 -0.20809372 -0.09081825 -0.6732963 0.22486512 -0.67845994 -0.15636064
0.38144732 0.29063803 -0.28218958 0.22006239 -0.52458715 0.11203271 -0.11171926 -0.28868547
0.123946585 0.2509031 -0.1504962 -0.26287916 0.22681329 -0.48612192 -0.34718332 -0.037934564
0.5760512 -0.3804045 0.14748546 -0.5043616 -0.05086867 0.7242372 0.33439663 -0.37169892
-0.14555489 -0.16589834 1.0700595 -0.07193548 -0.33413115 -0.44225436 0.1538964 0.023419084
-0.34852788 -0.3695685 0.14897758 -0.46561748 0.06629642 0.13245375 0.32435977 0.42237517
0.40232724 0.13526165 0.10622261 0.2058943 0.21285315 0.14174889 0.27929276 -0.097627915
0.13784546 0.17303747 0.0582679 -0.3309065 0.31949016 0.1277859 0.2683552 0.094387844
-0.4110272 0.37746337 -0.1823812 0.007279683 -0.31604922 -0.064652346 0.39304632 -0.017153315
-0.013908614 0.3123121 -0.23860809 0.028215133 0.1206137 0.36987236 -0.038340934 0.02082765
-0.29485473 0.020513473 -0.27141345 0.14305303 -0.44712687 -0.056302227 0.37051675 -0.24134925
-0.018413678 -0.0003725866 -0.40963903 0.36025304 -0.047950823 0.6009436 0.26280892 -0.2582007
0.57759035 0.19202334 0.21617466 0.27351603 0.36704177 -0.12777837 0.24624375 -0.35568565
0.4072095 0.23856258 0.87424463 -0.25317237 0.16870238 0.023662644 -0.14302893 0.60204387
0.33927864 -0.20851521 0.13686027 -0.21357572 0.28431636 0.16367102 0.33893257 -0.028758015
-0.1550134 0.42513037 0.08332008 0.34901744 0.14479221 0.07233485 0.38090387 0.56871045
-0.051169787 -0.28508273 0.084059484 0.14392139 0.43509513 -0.043935303 1.6215723 -0.14343181
00000000: 6249 f9bd 13b2 543e 636d 8a3f b93d 40be
00000010: b8ad 853f 6455 babe 0b48 803d bd69 763d
00000020: 83e1 c8be fd48 b8be 1ea5 983e 410e ca3d
00000030: a268 1bbe d1c6 c83d 6025 be3c ee94 483e
00000040: 7a6c adbd b7d5 8b3f 1dd9 38be 07dc 303d
00000050: 5eaa 40be 9ff7 c5bf 65bf 8abc 3295 803d
00000060: fadc c63c b94a 913f 05b3 08be 8ae6 8d3e
00000070: c0b4 a73c 9f9b 043d fde0 aebe 08c3 323e
00000080: c62e 6d3d 541e 6b3d 925d 87be 0094 843f
00000090: 6ea4 28be f3cc 9e3c a479 073d b184 7bbf
000000a0: 2e25 60bf 88ae 34be 53d9 9cbe 57fd 90be
000000b0: 4768 37bd 9862 92be e068 1b3d df80 953d
000000c0: 6387 62be 5edb 013e 71ee 883d 6540 873c
000000d0: 2076 15bf 97e2 283d 2129 c8be a006 eebd
000000e0: 9d5b 763d 6198 c1be 3693 a83c b117 883e
000000f0: 0f03 9fbc 6460 4a3e 67c6 143e 87cc b63c
00000100: bf07 b53d efed de3d 0589 cdbb 3bb6 68bd
00000110: 00b6 cfbc 688d 103e bef6 a63e 791c a73e
00000120: 23dd 4f3c 45b0 72bd 1b06 673d fc5a 97be
00000130: 14a6 163d 7b96 9c3e d720 95bd 7992 363d
00000140: 4854 b13d 76ab a13c 998e a43d b838 413e
00000150: ed46 c43b b047 bebf 0914 793e ea13 4d3f
00000160: 08e3 a5bf 0cd2 0f3e 07e0 60bf bbf0 5cbe
00000170: ea65 213e f624 db3d c85e 25bd dc09 7c3d
00000180: d6df 38bf 5e01 3d3e 74bb 2abf c689 523d
00000190: 4476 adbd 7431 b0bd 8bd1 a03e 732e 77bf
000001a0: b115 14bd 9c8a d53c fddb 6dbd d6c6 8fbd
000001b0: 0278 3ebf 07a4 2bbe 755d 50bd f9a8 5a3e
000001c0: 3528 e13d a3d5 14bf 29fe c93b 6ff9 b6be
000001d0: 0d83 b3bd 9a7d c53d 49cf 123e 34b3 4fbe
000001e0: 62b3 963e e7a4 503d 8516 55be ebfe b9bd
000001f0: 255d 2cbf 0b43 663e 8daf 2dbf 011d 20be
00000200: 104d c33e 82ce 943e 277b 90be 0958 613e
00000210: 584b 06bf 6871 e53d 11cd e4bd 95ce 93be
00000220: b5d7 fd3d 5f76 803e ad1b 1abe 1998 86be
00000230: be41 683e f9e4 f8be 03c2 b1be 4661 1bbd
00000240: 1778 133f 61c4 c2be 6e06 173e d81d 01bf
00000250: ab5b 50bd 9c67 393f 0936 ab3e 524f bebe
00000260: 570c 15be 41e1 29be b6f7 883f e952 93bd
00000270: 3d13 abbe 2a6f e2be 0597 1d3e 61d9 bf3c
00000280: 3f72 b2be 1538 bdbe 948d 183e 6a65 eebe
00000290: 6bc6 873d f5a1 073e 7c12 a63e 8f41 d83e
000002a0: d6fd cd3e 0882 0a3e 3d8b d93d f5d5 523e
000002b0: 2df6 593e 9f26 113e 76ff 8e3e 25f1 c7bd
000002c0: 5c27 0d3e bc30 313e 52aa 6e3d 946c a9be
000002d0: 3794 a33e 4fda 023e da65 893e 6a4e c13d
000002e0: 2872 d2be e142 c13e 23c2 3abe 688a ee3b
000002f0: 34d1 a1be 7368 84bd 5e3d c93e 1c85 8cbc
00000300: f5e0 63bc 5fe7 9f3e ae55 74be 6c23 e73c
00000310: 5104 f73d e95f bd3e 620b 1dbd bf9e aa3c
00000320: 33f7 96be df0b a83c b4f6 8abe 7e7c 123e
00000330: d0ed e4be 2a9d 66bd 5fb4 bd3e 4224 77be
00000340: 48d8 96bc ba57 c3b9 35bc d1be 1673 b83e
00000350: 1568 44bd 71d7 193f e48e 863e e232 84be
00000360: f6dc 133f c4a1 443e e45c 5d3e 4b0a 8c3e
00000370: e6ec bb3e 55d8 02be 5227 7c3e 6e1c b6be
00000380: c37d d03e c049 743e 7fce 5f3f cf9f 81be
00000390: 51c0 2c3e 29d8 c13c 2d76 12be 8c1f 1a3f
000003a0: eeb5 ad3e 0385 55be 1925 0c3e 98b3 5abe
000003b0: ea91 913e 6099 273e 9288 ad3e ee95 ebbc
000003c0: d5bb 1ebe b0aa d93e b8a3 aa3d 6ab2 b23e
000003d0: 6944 143e 4b24 943d d505 c33e 0297 113f
000003e0: 6997 51bd 5df6 91be 6127 ac3d 2160 133e
000003f0: cac4 de3e 81f5 33bd ae8f cf3f cadf 12be

item_tower.fc2.bias f4 [64]
0.042508185 -0.009600185 -0.08475607 0.057664126 -0.026036732 -0.085849054 -0.07475397 -0.038059022
-0.0027294941 0.07661331 -0.00076760823 -0.024730759 -0.005149595 0.047130466 -0.05420377 0.08528937
0.06275904 -0.077277884 0.05783555 -0.05441473 -0.00933636 0.00027295097 -0.03565087 0.023567788
-0.037234824 -0.009865838 -0.052866694 -0.017089548 -0.029726455 -0.018916905 -0.10541434 0.06518619
-0.035130676 -0.020171162 0.04531128 0.03664823 -0.008977857 0.025767786 0.07199259 0.01638057
-0.03618867 0.002409468 -0.01739297 0.07462171 0.03841822 0.03686092 -0.014989385 -0.08355431
0.024057329 0.070750795 0.05404279 -0.07378044 0.00826394 -0.054319397 -0.03790288 -0.034488
0.07332969 -0.04571795 -0.06354984 0.008111018 -0.022653915 0.058249485 -0.055271324 -0.08629169
00000000: 101d 2e3d 184a 1dbc 9794 adbd 3831 6c3d
00000010: fc4a d5bc a1d1 afbd 9c18 99bd c7e3 1bbd
00000020: 50e1 32bb 70e7 9c3d 5139 49ba 2998 cabc
00000030: efbd a8bb e00b 413d c604 5ebd 31ac ae3d
00000040: d087 803d de43 9ebd f8e4 6c3d fbe1 5ebd
00000050: 88f7 18bc dc1a 8f39 a606 12bd 3c11 c13c
00000060: 8b83 18bd 53a4 21bc bf8a 58bd 61ff 8bbc
00000070: e584 f3bc a0f7 9abc 79e3 d7bd 5680 853d
00000080: 2fe5 0fbd fe3d a5bc 5298 393d 741c 163d
00000090: dd17 13bc f716 d33c da70 933d 8c30 863c
000000a0: 923a 14bd 2ae8 1d3b b47b 8ebc 44d3 983d
000000b0: 6c5c 1d3d 7afb 163d 0a96 75bc 861e abbd
000000c0: e013 c53c cbe5 903d f95b 5d3d 331a 97bd
000000d0: 7a65 073c 047e 5ebd 0d40 1bbd 4a43 0dbd
000000e0: e02d 963d bf42 3bbd 6b26 82bd 13e4 043c
000000f0: b494 b9bc 0397 6e3d 2f64 62bd b3b9 b0bd

item_tower.bn2.weight f4 [64]
0.9411368 1.2858669 1.3043656 1.2712166 0.91494864 1.2972348 0.6457214 0.82491827
1.1928486 1.008849 0.6631601 0.8912976 1.054429 0.30050907 0.7147272 0.6979782
0.75738585 1.2059176 0.80232096 1.331528 0.5261865 0.3315463 1.2101349 0.9204347
0.781366 0.99026257 1.111879 1.7324907 0.9403076 1.0872642 1.593738 0.9946782
1.0850827 1.0350741 0.85769194 0.580909 0.97110426 0.6558423 0.8753509 0.80247855
0.775719 1.1609038 1.0154388 1.2227294 1.3789546 0.77066547 0.9866523 1.0771515
0.6590908 0.7178265 0.5641664 1.393785 1.2786325 0.87806916 0.6076474 1.2086918
0.898457 0.6115424 0.6585063 0.8044483 0.8967644 0.4028612 1.2021258 0.97638196
00000000: 57ee 703f 4997 a43f 74f5 a63f 3ab7 a23f
00000010: 133a 6a3f ca0b a63f ff4d 253f d82d 533f
00000020: 43af 983f f721 813f dcc4 293f 142c 643f
00000030: 88f7 863f 53dc 993e 5df8 363f b3ae 323f
00000040: 0ae4 413f 825b 9a3f e864 4d3f 826f aa3f
00000050: 29b4 063f 70c0 a93e b3e5 9a3f 9ca1 6b3f
00000060: 9a07 483f d981 7d3f 0d52 8e3f 41c2 dd3f
00000070: 00b8 703f 792b 8b3f 9bff cb3f 3ba3 7e3f
00000080: fde3 8a3f 4f7d 843f b391 5b3f 74b6 143f
00000090: 4a9a 783f 48e5 273f ff16 603f 3c6f 4d3f
000000a0: 8595 463f 7f98 943f e6f9 813f 6682 9c3f
000000b0: 9681 b03f 554a 453f 3f95 7c3f 1ae0 893f
000000c0: 2dba 283f 7ac3 373f 366d 103f 8c67 b23f
000000d0: 3baa a33f 24c9 603f c88e 1b3f 6ab6 9a3f
000000e0: 4701 663f 0b8e 1c3f de93 283f 53f0 4d3f
000000f0: 5a92 653f d343 ce3e 42df 993f 2bf4 793f

item_tower.bn2.bias f4 [64]
0.057311878 -0.111632116 0.09671492 -0.46653232 -0.22872193 0.029067125 -0.28366092 -0.21556719
-0.09174909 -0.25556538 -0.29146838 -0.03242314 -0.10238195 -0.19986664 0.027780924 -0.14243369
-0.037420113 -0.03698486 -0.2902371 -0.5008157 0.046866965 0.054847363 -0.18826185 -0.4372399
0.22540775 -0.23551406 -0.2568615 0.18486938 0.034641936 0.10280065 0.15602836 -0.49602324
-0.25406098 0.21924342 0.25240317 -0.35539627 0.05203094 -0.20779333 -0.00048885384 -0.12773664
-0.35499486 0.019261176 -0.03935551 0.078080796 0.0739359 0.062286764 -0.4516514 -0.06995198
-0.3675198 -0.2910195 -0.2947815 -0.1117479 -0.11074703 -0.21164958 0.11272478 -0.16112491
-0.3155039 -0.38007128 -0.24648653 -0.16619411 -0.60541284 0.031902935 -0.1296329 -0.0069347
00000000: dcbf 6a3d 619f e4bd 7912 c63d 53dd eebe
00000010: 1536 6abe 2e1e ee3c 013c 91be a5bd 5cbe
00000020: f2e6 bbbd 77d9 82be 583b 95be 20ce 04bd
00000030: a1ad d1bd d7a9 4cbe d294 e33c 23da 11be
00000040: d545 19bd 707d 17bd f599 94be 7535 00bf
00000050: 93f7 3f3d a1a7 603d b7c7 40be e8dd dfbe
00000060: 4ad1 663e 992a 71be 5a83 83be 664e 3d3e
00000070: b4e4 0d3d 2689 d23d e6c5 1f3e c2f6 fdbe
00000080: 4814 82be 5981 603e fd3a 813e 80f6 b5be
00000090: 651e 553d c6c7 54be 6d26 00ba 65cd 02be
000000a0: e3c1 b5be 9dc9 9d3c 3e33 21bd d3e8 9f3d
000000b0: b56b 973d 6820 7f3d da3e e7be fc42 8fbd
000000c0: 8e2b bcbe 8200 95be 9aed 96be 15dc e4bd
000000d0: 57cf e2bd abba 58be 40dc e63d eefd 24be
000000e0: ba89 a1be b498 c2be f766 7cbe ca2e 2abe
000000f0: 56fc 1abf a7ac 023d 7dbe 04be 7b3c e3bb

item_tower.bn2.running_mean f4 [64]
0.6415328 0.30712658 0.3845921 2.313005 0.97191924 0.5416618 2.5790398 -1.3535388
0.20354275 0.7202627 2.9051838 1.7127647 2.7589095 2.3569596 0.20373186 -0.8702088
-0.76296747 0.036248736 0.33748913 2.9407988 0.25896332 0.18583605 2.078137 1.9289683
-0.43316707 -3.6258466 1.8452241 0.5606937 0.5682055 0.9109454 0.428015 2.3833654
-2.4116848 0.0662112 -0.25035357 -0.84529555 0.27227792 0.16457917 -0.77120394 0.24444868
-4.222601 -0.7396161 3.08661 0.61569333 0.5372012 1.1013455 3.1233256 -0.16278899
2.3690135 2.853631 0.5407049 0.5829075 -0.10670319 3.1284084 -0.047563385 -0.3169079
2.391208 1.9139781 2.9914026 3.4974864 1.0256041 -0.36009285 -0.212233 -0.9155756
00000000: 7e3b 243f b23f 9d3e 41e9 c43e 4608 1440
00000010: b3cf 783f 59aa 0a3f fd0e 2540 c240 adbf
00000020: 836d 503e 2363 383f 88ee 3940 e03b db3f
00000030: f991 3040 6dd8 1640 169f 503e 01c6 5ebf
00000040: d651 43bf 8e79 143d 60cb ac3e 0c36 3c40
00000050: d796 843e ce4b 3e3e 3200 0540 6fe8 f63f
00000060: 13c8 ddbe df0d 68c0 4e30 ec3f 9f89 0f3f
00000070: ea75 113f b833 693f c824 db3e 0f89 1840
00000080: 0b59 1ac0 bd99 873d 582e 80be 4a65 58bf
00000090: 0368 8b3e 7187 283e 9f6d 45bf c150 7a3e
000000a0: 8c1f 87c0 7b57 3dbf 058b 4540 149e 1d3f
000000b0: 0586 093f e4f8 8c3f 91e4 4740 28b2 26be
000000c0: eb9d 1740 e4a1 3640 a36b 0a3f 6d39 153f
000000d0: 3487 dabd d837 4840 d3d1 42bd c141 a2be
000000e0: 8d09 1940 3cfd f43f 2473 3f40 d1d6 5f40
000000f0: ff46 833f 175e b8be 9c53 59be 2a63 6abf

item_tower.bn2.running_var f4 [64]
15.006054 18.297113 14.865321 8.251801 19.855558 23.691124 3.8358848 25.258068
11.499536 12.563301 10.199153 20.70975 14.19408 11.468612 15.166769 19.363844
26.178116 10.445744 23.743553 8.773472 20.29802 19.734573 8.941894 10.311313
22.567905 19.855875 10.660139 14.946943 20.794731 22.88525 15.243776 8.192899
7.6343694 22.957455 22.629326 22.267113 13.770994 20.766249 25.312824 19.107536
54.82505 25.633738 12.574381 16.22392 16.850275 8.325408 5.9014835 10.554477
4.5140586 11.416345 17.109762 9.409472 11.014763 12.441702 21.211561 12.555799
4.981978 15.409146 9.228115 13.225687 14.749655 24.124136 11.292509 26.323936
00000000: cc18 7041 7d60 9241 5bd8 6d41 6007 0441
00000010: 2fd8 9e41 6c87 bd41 237f 7540 8610 ca41
00000020: 19fe 3741 4803 4941 bb2f 2341 91ad a541
00000030: f41a 6341 6f7f 3741 16ab 7241 27e9 9a41
00000040: c86c d141 c421 2741 ccf2 bd41 2460 0c41
00000050: 5862 a241 68e0 9d41 ff11 0f41 23fb 2441
00000060: 128b b441 d5d8 9e41 ee8f 2a41 ae26 6f41
00000070: 9c5b a641 fe14 b741 82e6 7341 1d16 0341
00000080: c14c f440 dea8 b741 dc08 b541 0c23 b241
00000090: fe55 5c41 4721 a641 aa80 ca41 3cdc 9841
000000a0: da4c 5b42 e511 cd41 aa30 4941 97ca 8141
000000b0: 5dcd 8641 df34 0541 f4d8 bc40 23df 2841
000000c0: 2b73 9040 59a9 3641 cbe0 8841 338d 1641
000000d0: 783c 3041 3611 4741 47b1 a941 8de4 4841
000000e0: 5d6c 9f40 dd8b 7641 5ca6 1341 6a9c 5341
000000f0: 96fe 6b41 3bfe c041 1eae 3441 6c97 d241

item_tower.fc_out.weight f4 [64, 64]
0.16685678 0.7373424 0.07316889 0.5998105 0.08919573 0.052389354 -0.24564603 0.10246123
-0.2387166 0.6508019 0.2870789 -0.067411885 0.37563995 0.089791946 -0.38479954 -0.032768562
-0.14879344 -0.28575164 0.14405344 -0.74077743 -0.06798943 0.109924756 0.07589456 0.5895691
-0.032506023 0.10626579 -0.61338794 0.45307547 0.15300956 0.19284552 0.30032235 0.6482307
0.08213917 0.08928573 -0.1721547 0.39111218 -0.2302262 0.14216734 -0.16671225 0.014711059
-0.2935537 -0.12987284 -0.021045327 0.06701618 0.2934956 -0.24527076 -0.3352513 -0.2523844
0.19505648 0.18754621 0.21276467 -0.8069068 -0.103906155 0.17909096 0.12366894 -0.09746214
-0.29550222 0.049417783 0.13182077 0.26393378 0.4036824 0.03895274 -0.14894556 -0.1337916
0.060363125 0.30236152 0.056596454 -0.049592473 -0.21600921 0.42803603 -0.2416649 0.08392232
0.076153696 0.33054632 0.41010824 0.07013801 0.4056079 0.5075768 -0.2329746 -0.036855232
-0.12839514 0.31996045 0.027049448 -0.78602684 -0.017753724 0.09519219 0.14458638 0.34575775
-0.09586428 0.0075756516 -0.6083698 0.113424055 0.20985658 0.3591531 0.08810653 0.43628123
0.19507334 -0.25456393 -0.27732256 0.23102993 -0.16050959 0.16001889 0.096087866 0.008579276
-0.6024224 -0.18327096 -0.33485 -0.100096904 -0.07139091 -0.22778031 0.104933634 0.12798
0.13525827 0.36684713 -0.005911261 -0.9879002 0.4122843 0.45449734 0.043652862 0.30733368
-0.2864401 -0.07374194 0.104827315 0.38946736 0.3926351 0.053857956 0.1694407 -0.12380622
-0.25718525 0.13498437 -0.15145956 -0.5716764 -0.46939567 0.85576427 -0.13967878 0.139983
0.39894295 0.1741753 0.21800506 -0.018166972 0.29839295 0.36563048 -0.06812294 -0.2574391
-0.045878567 0.3716863 -0.23126876 -0.49839652 -0.24930674 0.008792896 0.3167759 0.15877184
-0.31362373 0.08156965 -0.4272759 -0.15492737 0.37733218 0.6443739 -0.15630019 0.19487166
0.44953302 -0.50875807 -0.469272 0.12947336 0.03478175 -0.16255254 -0.07358789 -0.20860675
-0.5924526 0.0038472002 -0.5324699 -0.24836515 -0.20062186 -0.23512296 0.20092298 0.4373884
0.27292845 0.08150482 -0.10003479 -0.19362873 0.542141 0.23075737 -0.01739866 0.3758014
-0.29217538 -0.1848865 0.17115821 0.19094692 0.27434763 -0.14527781 0.44979855 0.034499995
0.29795775 0.33913526 0.4751157 0.5214429 0.2716038 -0.05516324 0.011959844 -0.09743583
-0.5484042 0.293003 -0.098072894 0.10036518 -0.016821561 -0.11517007 -0.13971463 0.08156351
-0.23611493 -0.50776374 0.012184966 -0.18139946 0.2362352 0.18729518 -0.037856355 0.16805643
0.19965056 0.26797727 -0.19284557 0.33332673 0.07938177 0.017009163 0.4452679 0.15277897
-0.47626835 0.31713307 0.19864303 -0.09303827 0.00846006 0.07019961 -0.18821326 0.0798877
0.1567364 -0.23508397 0.4258193 0.2810264 0.3184797 -0.13534077 -0.2466764 -0.4067573
0.056671124 0.08099027 0.07445026 -0.17506385 -0.5497475 0.00428377 0.27982113 -0.3125516
-0.13730456 0.0801271 -0.11948726 0.02072449 -0.086074024 0.14620806 -0.53673697 -0.06152263
00000000: 81dc 2a3e 79c2 3c3f 92d9 953d 2e8d 193f
00000010: 40ac b63d 3896 563d a28a 7bbe 31d7 d13d
00000020: 2072 74be f49a 263f 01fc 923e 3e0f 8abd
00000030: e153 c03e d7e4 b73d 7204 c5be 5438 06bd
00000040: 4f5d 18be 0a4e 92be bf82 133e 97a3 3dbf
00000050: 0b3e 8bbd 3b20 e13d 9b6e 9b3d 00ee 163f
00000060: 0925 05bd e1a1 d93d fe06 1dbf 82f9 e73e
00000070: 8aae 1c3e 4c79 453e dac3 993e 72f2 253f
00000080: 9538 a83d 70db b63d 5249 30be db3f c83e
00000090: 6bc0 6bbe 5194 113e 9eb6 2abe a706 713c
000000a0: ac4c 96be 63fd 04be 4067 acbc c73f 893d
000000b0: 0e45 963e 4228 7bbe 0fa6 abbe 8738 81be
000000c0: e3bc 473e 1d0c 403e fbde 593e 7291 4ebf
000000d0: c0cc d4bd 9f63 373e 2446 fd3d 3b9a c7bd
000000e0: 114c 97be 4d6a 4a3d 06fc 063e 5422 873e
000000f0: 76af ce3e e98c 1f3d 2f85 18be aa00 09be
00000100: 533f 773d 21cf 9a3e afd1 673d 7a21 4bbd
00000110: 8531 5dbe 8a27 db3e 0177 77be 77df ab3d
00000120: 78f6 9b3d 5e3d a93e b5f9 d13e 84a4 8f3d
00000130: d7ab cf3e 8ef0 013f e590 6ebe 83f5 16bd
00000140: 047a 03be dbd1 a33e ce96 dd3c 0e39 49bf
00000150: 4270 91bc 1ff4 c23d 740e 143e 2907 b13e
00000160: 7e54 c4bd 2c3d f83b 20be 1bbf df4a e83d
00000170: a5e4 563e eae2 b73e 3271 b43d 4160 df3e
00000180: 4ec1 473e 3456 82be 39fd 8dbe 1c93 6c3e
00000190: a05c 24be fedb 233e b7c9 c43d 1790 0c3c
000001a0: 5b38 1abf 62ab 3bbe 7671 abbe 9bff ccbd
000001b0: 6635 92bd 3e3f 69be 72e7 d63d 300d 033e
000001c0: 2581 0a3e 63d3 bb3e 40b3 c1bb 07e7 7cbf
000001d0: ee16 d33e e0b3 e83e 58cd 323d d75a 9d3e
000001e0: 47a8 92be 0406 97bd b4af d63d 4468 c73e
000001f0: 7807 c93e 299a 5c3d dd81 2d3e 1e8e fdbd
00000200: c9ad 83be 5839 0a3e 3718 1bbe 6259 12bf
00000210: a154 f0be 5e13 5b3f f407 0fbe b457 0f3e
00000220: 4042 cc3e 035b 323e b83c 5f3e e7d2 94bc
00000230: f6c6 983e eb33 bb3e 0a84 8bbd 0fcf 83be
00000240: 2aeb 3bbd ab4d be3e b8d1 6cbe d42d ffbe
00000250: 444a 7fbe 1410 103c 7330 a23e 1695 223e
00000260: 4a93 a0be fd0d a73d e8c3 dabe 48a5 1ebe
00000270: af31 c13e b0f5 243f 280d 20be 708c 473e
00000280: 3129 e63e f83d 02bf 6b44 f0be aa94 043e
00000290: 4f77 0e3d 2c74 26be 3fb5 96bd 029d 55be
000002a0: f9aa 17bf 4f21 7c3b f34f 08bf 6f53 7ebe
000002b0: d16f 4dbe 13c4 70be c1be 4d3e 5ff1 df3e
000002c0: 47bd 8b3e 00ec a63d 0adf ccbd 9c46 46be
000002d0: c1c9 0a3f a94b 6c3e a287 8ebc 0b69 c03e
000002e0: 0398 95be e352 3dbe 1944 2f3e 9787 433e
000002f0: 4b77 8c3e b5c3 14be ff4b e63e de4f 0d3d
00000300: eb8d 983e 23a3 ad3e 5d42 f33e 487d 053f
00000310: a70f 8b3e d9f2 61bd 39f3 433c 708c c7bd
00000320: 3864 0cbf 7d04 963e 71da c8bd 428c cd3d
00000330: 5fcd 89bc 49de ebbd 5a11 0fbe c50a a73d
00000340: 1dc8 71be cefc 01bf 74a3 473c c8c0 39be
00000350: a4e7 713e 4fca 3f3e 440f 1bbd fc16 2c3e
00000360: 3271 4c3e 5134 893e 4f79 45be cda9 aa3e
00000370: e992 a23d cd56 8b3c 27fa e33e 1772 1c3e
00000380: 72d9 f3be 445f a23e 1469 4b3e d98a bebd
00000390: 109c 0a3c d0c4 8f3d faba 40be 2a9c a33d
000003a0: 827f 203e dab9 70be fd04 da3e b1e2 8f3e
000003b0: c50f a33e c596 0abe bd98 7cbe 7e42 d0be
000003c0: fb1f 683d 3ade a53d 6179 983d f043 33be
000003d0: 41bc 0cbf de5e 8c3b b744 8f3e c306 a0be
000003e0: 9199 0cbe ad19 a43d bdb5 f4bd 68c6 a93c
000003f0: 9447 b0bd 91b7 153e 9867 09bf 27ff 7bbd

item_tower.fc_out.bias f4 [64]
0.13252464 0.10565012 -0.24937068 -0.013536771 -0.17624131 0.25478795 0.060904205 -0.40188125
-0.18306205 -0.17154256 -0.8035157 0.18976188 -0.04794447 0.34076104 -0.14028664 -0.13097352
0.38903233 -0.123571806 -0.058930516 0.22798492 -0.04342959 -0.3360096 0.48077574 0.46517834
-0.2431471 0.3294479 0.10116404 0.14777401 -0.13409969 0.22379114 0.27877158 0.19615419
0.026044874 -0.14743428 -0.16305095 0.076425895 0.0032061322 0.29624546 -0.20210606 0.18287857
0.007853191 0.03414951 0.4271215 -0.20615517 -0.16322634 0.19329554 -0.13885552 0.5794615
-0.42123252 0.06570143 -0.1011828 0.119949564 0.17302164 0.20264605 0.16866186 -0.024046736
0.72802544 0.53577507 -0.014049565 -0.570882 -0.16396816 0.74532396 -0.2970006 0.37529865
00000000: 8ab4 073e 175f d83d 075b 7fbe 55c9 5dbc
00000010: 9a78 34be 9173 823e b076 793d 61c3 cdbe
00000020: 9e74 3bbe daa8 2fbe 34b3 4dbf f050 423e
00000030: 6c61 44bd 3b78 ae3e 4da7 0fbe ec1d 06be
00000040: 3f2f c73e 3713 fdbd 2061 71bd e174 693e
00000050: 3ae3 31bd 7309 acbe 3d28 f63e db2b ee3e
00000060: 8efb 78be 65ad a83e 182f cf3d 1252 173e
00000070: 6e51 09be 8129 653e 26bb 8e3e a5dc 483e
00000080: 0f5c d53c 03f9 16be d4f6 26be 2e85 9c3d
00000090: f91d 523b 7cad 973e e4f4 4ebe 8544 3b3e
000000a0: acaa 003c 5be0 0b3d abaf da3e 571a 53be
000000b0: ce24 27be 44ef 453e 2430 0ebe 9757 143f
000000c0: caab d7be 798e 863d ee38 cfbd 1ea8 f53d
000000d0: 962c 313e 7282 4f3e b2b5 2c3e a9fd c4bc
000000e0: e05f 3a3f 8e28 093f 2630 66bc 5325 12bf
000000f0: 45e7 27be 8dcd 3e3f 7610 98be 2527 c03e

query_tower.mood_embedding.weight f4 [4, 16]
-1.4909998 -1.2648586 -1.6915469 0.74162966 0.7287769 0.3543216 1.410774 -1.995621
-0.683683 -0.14401582 0.15415026 -0.7596436 0.111715585 -0.50898165 -0.30822927 -0.8402537
1.5883799 -0.92365515 0.32935825 0.88982946 0.2842831 -0.38290146 -0.6444956 -0.9144479
0.5029911 -0.5125499 -1.0020238 0.8290559 0.32911533 -0.00026800876 -0.4969024 -0.61666524
0.53774124 -0.05745682 -1.7789389 0.37989905 -1.5632172 0.3555085 -1.230212 1.185282
0.59985065 -0.60241467 0.81470066 -1.3858837 0.295244 -1.0569229 0.72272635 -0.6635231
-2.479211 -1.8335173 0.1707582 0.32872733 -1.7945496 -1.8375988 -0.8300916 0.22006197
-1.6720874 0.54131395 0.61449826 0.29420802 -0.04871606 -0.30014375 1.1763622 1.6612086
00000000: 15d9 bebf e3e6 a1bf 9c84 d8bf 71db 3d3f
00000010: 1f91 3a3f a469 b53e 3e94 b43f 8270 ffbf
00000020: d905 2fbf e278 13be 91d9 1d3e 0178 42bf
00000030: 24cb e43d 9f4c 02bf 3ad0 9dbe de1a 57bf
00000040: 0850 cb3f aa74 6cbf a5a1 a83e ddcb 633f
00000050: 8e8d 913e a90b c4be aafd 24bf 4219 6abf
00000060: 06c4 003f 7836 03bf 5142 80bf 023d 543f
00000070: ce81 a83e 8783 8cb9 fe69 febe c6dd 1dbf
00000080: 69a9 093f d857 6bbd 45b4 e3bf 2182 c23e
00000090: 8017 c8bf 3605 b63e 9677 9dbf 52b7 973f
000000a0: d08f 193f d937 1abf 3990 503f a364 b1bf
000000b0: 392a 973e 4049 87bf 9804 393f a6dc 29bf
000000c0: 65ab 1ec0 b2b0 eabf 3ddb 2e3e f34e a83e
000000d0: cdb3 e5bf 7036 ebbf e280 54bf ed57 613e
000000e0: f606 d6bf 8d93 0a3f c24f 1d3f 6fa2 963e
000000f0: 7e8a 47bd 71ac 99be 0993 963f 7ca2 d43f
